Rainbow_DQN_Conv(
  (q1_conv1): Conv2d(12, 32, kernel_size=(4, 4), stride=(2, 2))
  (q1_conv2): Conv2d(32, 32, kernel_size=(5, 5), stride=(2, 2), padding=(2, 2))
  (q1_conv3): Conv2d(32, 32, kernel_size=(7, 7), stride=(7, 7))
  (q1_fc1): Linear(in_features=288, out_features=128, bias=True)
  (q1_fc2_V): Linear(in_features=128, out_features=128, bias=True)
  (q1_fc2_A): Linear(in_features=128, out_features=128, bias=True)
  (q1_V): Linear(in_features=128, out_features=1, bias=True)
  (q1_A): Linear(in_features=128, out_features=3, bias=True)
  (q2_conv1): Conv2d(12, 32, kernel_size=(4, 4), stride=(2, 2))
  (q2_conv2): Conv2d(32, 32, kernel_size=(5, 5), stride=(2, 2), padding=(2, 2))
  (q2_conv3): Conv2d(32, 32, kernel_size=(7, 7), stride=(7, 7))
  (q2_fc1): Linear(in_features=288, out_features=128, bias=True)
  (q2_fc2_V): Linear(in_features=128, out_features=128, bias=True)
  (q2_fc2_A): Linear(in_features=128, out_features=128, bias=True)
  (q2_V): Linear(in_features=128, out_features=1, bias=True)
  (q2_A): Linear(in_features=128, out_features=3, bias=True)
)
1 *** 1001 *** -10.009999310132116 *** (-0.006283842027187347, -0.021811233833432198, 0.00637463666498661, -0.008725948631763458, -0.009999999776482582)
2 *** 1001 *** -10.009999310132116 *** (-0.016001200303435326, -0.032581083476543427, 0.008591335266828537, -0.015564551576972008, -0.009999999776482582)
3 *** 1001 *** -10.009999310132116 *** (-0.026931485161185265, -0.04229412227869034, -0.002205062657594681, -0.02735011838376522, -0.009999999776482582)
…
