/home/duju/cd2018-2,p3.5/bin/python3 /home/duju/animal_ai_olympics/duju_animal_ai_olympics/tdqn_exp/base_tdqn_conv.py
Conv_Discrete_TDQN_celu_larger networks
reward_compensate 1
skip_frame 1
input channel size :  3
fc input size :  1536
input channel size :  3
fc input size :  1536
Triple_DQN(
  (q1_conv1): Conv2d(3, 16, kernel_size=(5, 5), stride=(2, 2), padding=(2, 2))
  (q1_conv2): Conv2d(16, 32, kernel_size=(5, 5), stride=(2, 2), padding=(2, 2))
  (q1_conv3): Conv2d(32, 64, kernel_size=(3, 3), stride=(2, 2), padding=(1, 1))
  (q1_conv4): Conv2d(64, 128, kernel_size=(3, 3), stride=(2, 2), padding=(1, 1))
  (q1_fc1): Linear(in_features=1536, out_features=256, bias=True)
  (q1_fc2): Linear(in_features=256, out_features=256, bias=True)
  (q1_fc3): Linear(in_features=256, out_features=3, bias=True)
  (q2_conv1): Conv2d(3, 16, kernel_size=(5, 5), stride=(2, 2), padding=(2, 2))
  (q2_conv2): Conv2d(16, 32, kernel_size=(5, 5), stride=(2, 2), padding=(2, 2))
  (q2_conv3): Conv2d(32, 64, kernel_size=(3, 3), stride=(2, 2), padding=(1, 1))
  (q2_conv4): Conv2d(64, 128, kernel_size=(3, 3), stride=(2, 2), padding=(1, 1))
  (q2_fc1): Linear(in_features=1536, out_features=256, bias=True)
  (q2_fc2): Linear(in_features=256, out_features=256, bias=True)
  (q2_fc3): Linear(in_features=256, out_features=3, bias=True)
)
1	74 *** (0.41962775588035583, 0.18913044035434723, 0.7286159992218018, 0.4159875512123108, 0.07241049408912659)
2	139 *** (0.8505200743675232, 0.20714616775512695, 1.893425703048706, 0.8566111922264099, 0.10069315135478973)
3	47 *** (0.9537665247917175, 0.15070396661758423, 3.3915350437164307, 0.939855694770813, 0.07197324931621552)
4	129 *** (1.1510076522827148, -0.17968249320983887, 3.2741851806640625, 1.1466002464294434, 0.07645487785339355)
…
