/home/duju/cd2018-2,p3.5/bin/python3 /home/duju/animal_ai_olympics/duju_animal_ai_olympics/tdqn_exp/base_tdqn_conv.py
Conv_Discrete_TDQN_celu_larger networks
reward_compensate 10
skip_frame 1
input channel size :  3
fc input size :  768
input channel size :  3
fc input size :  768
Triple_DQN(
  (q1_conv1): Conv2d(3, 32, kernel_size=(5, 5), stride=(2, 2), padding=(2, 2))
  (q1_conv2): Conv2d(32, 32, kernel_size=(5, 5), stride=(2, 2), padding=(2, 2))
  (q1_conv3): Conv2d(32, 32, kernel_size=(3, 3), stride=(2, 2), padding=(1, 1))
  (q1_conv4): Conv2d(32, 64, kernel_size=(3, 3), stride=(2, 2), padding=(1, 1))
  (q1_conv5): Conv2d(64, 128, kernel_size=(3, 3), stride=(2, 2), padding=(1, 1))
  (q1_fc1): Linear(in_features=768, out_features=256, bias=True)
  (q1_fc2): Linear(in_features=256, out_features=256, bias=True)
  (q1_fc3): Linear(in_features=256, out_features=3, bias=True)
  (q2_conv1): Conv2d(3, 32, kernel_size=(5, 5), stride=(2, 2), padding=(2, 2))
  (q2_conv2): Conv2d(32, 32, kernel_size=(5, 5), stride=(2, 2), padding=(2, 2))
  (q2_conv3): Conv2d(32, 32, kernel_size=(3, 3), stride=(2, 2), padding=(1, 1))
  (q2_conv4): Conv2d(32, 64, kernel_size=(3, 3), stride=(2, 2), padding=(1, 1))
  (q2_conv5): Conv2d(64, 128, kernel_size=(3, 3), stride=(2, 2), padding=(1, 1))
  (q2_fc1): Linear(in_features=768, out_features=256, bias=True)
  (q2_fc2): Linear(in_features=256, out_features=256, bias=True)
  (q2_fc3): Linear(in_features=256, out_features=3, bias=True)
)
1	1 *** (0.12611500918865204, 0.05517079308629036, 0.4214853048324585, 0.13052408397197723, 0.018749265000224113)
2	111 *** (2.9252991676330566, -0.046574268490076065, 10.743593215942383, 2.8352153301239014, 0.6628812551498413)
3	132 *** (5.932670593261719, -0.18271508812904358, 24.89739990234375, 6.17746114730835, 0.7425291538238525)
4	53 *** (7.576268672943115, -0.18175631761550903, 38.67493438720703, 7.587735652923584, 0.7130386829376221)
…
