/home/duju/cd2018-2,p3.5/bin/python3 /home/duju/animal_ai_olympics/duju_animal_ai_olympics/SAC_base/discrete_conv_dm_experiment.py
Conv_Discrete_SAC_stable_alpha_Zero
reward_compensate 100
alpha 0.0
input channel size :  3
fc input size :  384
input channel size :  3
fc input size :  384
DiscreteConvSAC(
  (q1_conv1): Conv2d(3, 32, kernel_size=(5, 5), stride=(2, 2), padding=(2, 2))
  (q1_conv2): Conv2d(32, 32, kernel_size=(5, 5), stride=(2, 2), padding=(2, 2))
  (q1_conv3): Conv2d(32, 32, kernel_size=(3, 3), stride=(2, 2), padding=(1, 1))
  (q1_conv4): Conv2d(32, 16, kernel_size=(3, 3), stride=(2, 2), padding=(1, 1))
  (q1_fc1): Linear(in_features=384, out_features=256, bias=True)
  (q1_fc2): Linear(in_features=256, out_features=3, bias=True)
  (q2_conv1): Conv2d(3, 32, kernel_size=(5, 5), stride=(2, 2), padding=(2, 2))
  (q2_conv2): Conv2d(32, 32, kernel_size=(5, 5), stride=(2, 2), padding=(2, 2))
  (q2_conv3): Conv2d(32, 32, kernel_size=(3, 3), stride=(2, 2), padding=(1, 1))
  (q2_conv4): Conv2d(32, 16, kernel_size=(3, 3), stride=(2, 2), padding=(1, 1))
  (q2_fc1): Linear(in_features=384, out_features=256, bias=True)
  (q2_fc2): Linear(in_features=256, out_features=3, bias=True)
)
1	46 *** (7.906083106994629, 7.823080062866211, 0.907549262046814, 0.0, 6.06413459777832)
2	113 *** (19.809127807617188, 20.229589462280273, 0.27207061648368835, 0.0, 8.01009464263916)
3	23 *** (20.93794822692871, 20.59255027770996, 0.8654194474220276, 0.0, 5.585155487060547)
4	150 *** (36.592689514160156, 38.392921447753906, 0.02209695614874363, 0.0, 9.422012329101562)
…
