/home/duju/cd2018-2,p3.5/bin/python3 /home/duju/animal_ai_olympics/duju_animal_ai_olympics/tdqn_exp/base_tdqn_conv.py
Conv_Discrete_TDQN_celu_larger networks
reward_compensate 1
skip_frame 1
input channel size :  3
fc input size :  1536
input channel size :  3
fc input size :  1536
Triple_DQN(
  (q1_conv1): Conv2d(3, 16, kernel_size=(5, 5), stride=(2, 2), padding=(2, 2))
  (q1_conv2): Conv2d(16, 32, kernel_size=(5, 5), stride=(2, 2), padding=(2, 2))
  (q1_conv3): Conv2d(32, 64, kernel_size=(3, 3), stride=(2, 2), padding=(1, 1))
  (q1_conv4): Conv2d(64, 128, kernel_size=(3, 3), stride=(2, 2), padding=(1, 1))
  (q1_fc1): Linear(in_features=1536, out_features=256, bias=True)
  (q1_fc2): Linear(in_features=256, out_features=256, bias=True)
  (q1_fc3): Linear(in_features=256, out_features=3, bias=True)
  (q2_conv1): Conv2d(3, 16, kernel_size=(5, 5), stride=(2, 2), padding=(2, 2))
  (q2_conv2): Conv2d(16, 32, kernel_size=(5, 5), stride=(2, 2), padding=(2, 2))
  (q2_conv3): Conv2d(32, 64, kernel_size=(3, 3), stride=(2, 2), padding=(1, 1))
  (q2_conv4): Conv2d(64, 128, kernel_size=(3, 3), stride=(2, 2), padding=(1, 1))
  (q2_fc1): Linear(in_features=1536, out_features=256, bias=True)
  (q2_fc2): Linear(in_features=256, out_features=256, bias=True)
  (q2_fc3): Linear(in_features=256, out_features=3, bias=True)
)
1	1 *** (0.0194283127784729, 0.012985199689865112, 0.028378259390592575, 0.01945691555738449, 0.0016418760642409325)
2	74 *** (0.2812339663505554, 0.09091950953006744, 0.804297149181366, 0.2737795114517212, 0.04036235064268112)
3	46 *** (0.4323447644710541, 0.09901510179042816, 1.1147973537445068, 0.42680010199546814, 0.03910306096076965)
4	46 *** (0.6219604015350342, 0.03234162926673889, 2.017974376678467, 0.6348282694816589, 0.04180445149540901)
…
