/home/duju/cd2018-2,p3.5/bin/python3 /home/duju/animal_ai_olympics/duju_animal_ai_olympics/tdqn_exp/base_tdqn_conv.py
Conv_Discrete_TDQN_celu_larger networks
reward_compensate 1
skip_frame 4
input channel size :  3
fc input size :  1536
input channel size :  3
fc input size :  1536
Triple_DQN(
  (q1_conv1): Conv2d(3, 16, kernel_size=(5, 5), stride=(2, 2), padding=(2, 2))
  (q1_conv2): Conv2d(16, 32, kernel_size=(5, 5), stride=(2, 2), padding=(2, 2))
  (q1_conv3): Conv2d(32, 64, kernel_size=(3, 3), stride=(2, 2), padding=(1, 1))
  (q1_conv4): Conv2d(64, 128, kernel_size=(3, 3), stride=(2, 2), padding=(1, 1))
  (q1_fc1): Linear(in_features=1536, out_features=256, bias=True)
  (q1_fc2): Linear(in_features=256, out_features=256, bias=True)
  (q1_fc3): Linear(in_features=256, out_features=3, bias=True)
  (q2_conv1): Conv2d(3, 16, kernel_size=(5, 5), stride=(2, 2), padding=(2, 2))
  (q2_conv2): Conv2d(16, 32, kernel_size=(5, 5), stride=(2, 2), padding=(2, 2))
  (q2_conv3): Conv2d(32, 64, kernel_size=(3, 3), stride=(2, 2), padding=(1, 1))
  (q2_conv4): Conv2d(64, 128, kernel_size=(3, 3), stride=(2, 2), padding=(1, 1))
  (q2_fc1): Linear(in_features=1536, out_features=256, bias=True)
  (q2_fc2): Linear(in_features=256, out_features=256, bias=True)
  (q2_fc3): Linear(in_features=256, out_features=3, bias=True)
)
1	75 *** (0.12429772317409515, -4.0344537410419434e-05, 0.794134795665741, 0.12039091438055038, 0.05627327784895897)
2	75 *** (0.9004181623458862, 0.20198291540145874, 2.2488467693328857, 0.8834303617477417, 0.08412174880504608)
3	21 *** (1.1456050872802734, 0.5295214056968689, 1.6078712940216064, 1.145230770111084, 0.06097644194960594)
4	188 *** (1.6084327697753906, 0.9887201189994812, 2.0934407711029053, 1.6095819473266602, 0.05128259211778641)
…
