…
Mono path[0] = '/home/duju/animal_ai_olympics/AnimalAI-Olympics/env/AnimalAI_Data/Managed'
Mono config path = '/home/duju/animal_ai_olympics/AnimalAI-Olympics/env/AnimalAI_Data/MonoBleedingEdge/etc'
Preloaded 'ScreenSelector.so'
Preloaded 'libgrpc_csharp_ext.x64.so'
Display 0 '24NB77PR 24"': 1920x1080 (primary device).
Display 1 'VA2419 Series 24"': 1920x1080 (secondary device).
Logging to /home/duju/.config/unity3d/Unity Technologies/Unity Environment/Player.log
INFO:mlagents.envs:
'Academy' started successfully!
Unity Academy name: Academy
        Number of Brains: 1
        Number of Training Brains : 1
Rainbow_DQN_Conv(
  (q1_conv1): Conv2d(12, 32, kernel_size=(4, 4), stride=(2, 2))
  (q1_conv2): Conv2d(32, 32, kernel_size=(5, 5), stride=(2, 2), padding=(2, 2))
  (q1_conv3): Conv2d(32, 32, kernel_size=(7, 7), stride=(7, 7))
  (q1_fc1): Linear(in_features=288, out_features=128, bias=True)
  (q1_fc2_V): Linear(in_features=128, out_features=128, bias=True)
  (q1_fc2_A): Linear(in_features=128, out_features=128, bias=True)
  (q1_V): Linear(in_features=128, out_features=1, bias=True)
  (q1_A): Linear(in_features=128, out_features=3, bias=True)
  (q2_conv1): Conv2d(12, 32, kernel_size=(4, 4), stride=(2, 2))
  (q2_conv2): Conv2d(32, 32, kernel_size=(5, 5), stride=(2, 2), padding=(2, 2))
  (q2_conv3): Conv2d(32, 32, kernel_size=(7, 7), stride=(7, 7))
  (q2_fc1): Linear(in_features=288, out_features=128, bias=True)
  (q2_fc2_V): Linear(in_features=128, out_features=128, bias=True)
  (q2_fc2_A): Linear(in_features=128, out_features=128, bias=True)
  (q2_V): Linear(in_features=128, out_features=1, bias=True)
  (q2_A): Linear(in_features=128, out_features=3, bias=True)
)
1	*** 2501 *** -10.004000475164503 *** (7.543605327606201, 6.924895286560059, 7.90557861328125, 7.636006832122803, -0.004000000189989805)
2	*** 2500 *** -10.000000474974513 *** (7.10548734664917, 4.855633735656738, 8.150790214538574, 7.102647304534912, -0.004000000189989805)
3	*** 2500 *** -10.000000474974513 *** (6.082475185394287, 3.81087064743042, 7.967870235443115, 6.069091796875, -0.004000000189989805)
…
