/home/duju/cd2018-2,p3.5/bin/python3 /home/duju/animal_ai_olympics/duju_animal_ai_olympics/tdqn_exp/base_tdqn_conv.py
Conv_Discrete_TDQN_celu_larger networks
reward_compensate 10
skip_frame 2
input channel size :  3
fc input size :  1536
input channel size :  3
fc input size :  1536
Triple_DQN(
  (q1_conv1): Conv2d(3, 64, kernel_size=(5, 5), stride=(2, 2), padding=(2, 2))
  (q1_conv2): Conv2d(64, 32, kernel_size=(5, 5), stride=(2, 2), padding=(2, 2))
  (q1_conv3): Conv2d(32, 16, kernel_size=(3, 3), stride=(2, 2), padding=(1, 1))
  (q1_fc1): Linear(in_features=1536, out_features=256, bias=True)
  (q1_fc2): Linear(in_features=256, out_features=256, bias=True)
  (q1_fc3): Linear(in_features=256, out_features=2, bias=True)
  (q2_conv1): Conv2d(3, 64, kernel_size=(5, 5), stride=(2, 2), padding=(2, 2))
  (q2_conv2): Conv2d(64, 32, kernel_size=(5, 5), stride=(2, 2), padding=(2, 2))
  (q2_conv3): Conv2d(32, 16, kernel_size=(3, 3), stride=(2, 2), padding=(1, 1))
  (q2_fc1): Linear(in_features=1536, out_features=256, bias=True)
  (q2_fc2): Linear(in_features=256, out_features=256, bias=True)
  (q2_fc3): Linear(in_features=256, out_features=2, bias=True)
  (q3_conv1): Conv2d(3, 64, kernel_size=(5, 5), stride=(2, 2), padding=(2, 2))
  (q3_conv2): Conv2d(64, 32, kernel_size=(5, 5), stride=(2, 2), padding=(2, 2))
  (q3_conv3): Conv2d(32, 16, kernel_size=(3, 3), stride=(2, 2), padding=(1, 1))
  (q3_fc1): Linear(in_features=1536, out_features=256, bias=True)
  (q3_fc2): Linear(in_features=256, out_features=256, bias=True)
  (q3_fc3): Linear(in_features=256, out_features=2, bias=True)
)
1	70 *** (0.9697487950325012, 0.9972014427185059, 0.9844761490821838, 0.7920453548431396)
2	133 *** (1.1306008100509644, 1.1224325895309448, 1.076532006263733, 0.7579754590988159)
3	139 *** (2.288792848587036, 2.2615513801574707, 2.2569127082824707, 1.2696382999420166)
4	202 *** (2.2658157348632812, 2.235694408416748, 2.2806777954101562, 1.267053246498108)
…
