/home/duju/cd2018-2,p3.5/bin/python3 /home/duju/animal_ai_olympics/duju_animal_ai_olympics/tdqn_exp/base_tdqn_conv.py
Conv_Discrete_TDQN_celu_weight_decay
reward_compensate 10
skip_frame 2
input channel size :  3
fc input size :  1536
input channel size :  3
fc input size :  1536
Triple_DQN(
  (q1_conv1): Conv2d(3, 32, kernel_size=(5, 5), stride=(2, 2), padding=(2, 2))
  (q1_conv2): Conv2d(32, 32, kernel_size=(5, 5), stride=(2, 2), padding=(2, 2))
  (q1_conv3): Conv2d(32, 16, kernel_size=(3, 3), stride=(2, 2), padding=(1, 1))
  (q1_fc1): Linear(in_features=1536, out_features=256, bias=True)
  (q1_fc2): Linear(in_features=256, out_features=2, bias=True)
  (q2_conv1): Conv2d(3, 32, kernel_size=(5, 5), stride=(2, 2), padding=(2, 2))
  (q2_conv2): Conv2d(32, 32, kernel_size=(5, 5), stride=(2, 2), padding=(2, 2))
  (q2_conv3): Conv2d(32, 16, kernel_size=(3, 3), stride=(2, 2), padding=(1, 1))
  (q2_fc1): Linear(in_features=1536, out_features=256, bias=True)
  (q2_fc2): Linear(in_features=256, out_features=2, bias=True)
  (q3_conv1): Conv2d(3, 32, kernel_size=(5, 5), stride=(2, 2), padding=(2, 2))
  (q3_conv2): Conv2d(32, 32, kernel_size=(5, 5), stride=(2, 2), padding=(2, 2))
  (q3_conv3): Conv2d(32, 16, kernel_size=(3, 3), stride=(2, 2), padding=(1, 1))
  (q3_fc1): Linear(in_features=1536, out_features=256, bias=True)
  (q3_fc2): Linear(in_features=256, out_features=2, bias=True)
)
1	75 *** (1.7561085224151611, 1.741621971130371, 1.7963358163833618, 0.5971864461898804)
2	176 *** (4.203287124633789, 4.77766752243042, 3.9454967975616455, 1.1011635065078735)
3	159 *** (4.898139953613281, 4.581393241882324, 4.648836612701416, 1.0479183197021484)
4	128 *** (4.640246391296387, 4.769641399383545, 4.7753801345825195, 1.5402640104293823)
5	145 *** (5.76413106918335, 5.63999605178833, 5.397730827331543, 1.2505217790603638)
…
