/home/duju/cd2018-2,p3.5/bin/python3 /home/duju/animal_ai_olympics/duju_animal_ai_olympics/tdqn_exp/base_tdqn_conv.py
Conv_Discrete_TDQN_first
reward_compensate 1
input channel size :  3
fc input size :  1536
input channel size :  3
fc input size :  1536
Triple_DQN(
  (q1_conv1): Conv2d(3, 32, kernel_size=(5, 5), stride=(2, 2), padding=(2, 2))
  (q1_conv2): Conv2d(32, 32, kernel_size=(5, 5), stride=(2, 2), padding=(2, 2))
  (q1_conv3): Conv2d(32, 16, kernel_size=(3, 3), stride=(2, 2), padding=(1, 1))
  (q1_fc1): Linear(in_features=1536, out_features=256, bias=True)
  (q1_fc2): Linear(in_features=256, out_features=3, bias=True)
  (q2_conv1): Conv2d(3, 32, kernel_size=(5, 5), stride=(2, 2), padding=(2, 2))
  (q2_conv2): Conv2d(32, 32, kernel_size=(5, 5), stride=(2, 2), padding=(2, 2))
  (q2_conv3): Conv2d(32, 16, kernel_size=(3, 3), stride=(2, 2), padding=(1, 1))
  (q2_fc1): Linear(in_features=1536, out_features=256, bias=True)
  (q2_fc2): Linear(in_features=256, out_features=3, bias=True)
  (q3_conv1): Conv2d(3, 32, kernel_size=(5, 5), stride=(2, 2), padding=(2, 2))
  (q3_conv2): Conv2d(32, 32, kernel_size=(5, 5), stride=(2, 2), padding=(2, 2))
  (q3_conv3): Conv2d(32, 16, kernel_size=(3, 3), stride=(2, 2), padding=(1, 1))
  (q3_fc1): Linear(in_features=1536, out_features=256, bias=True)
  (q3_fc2): Linear(in_features=256, out_features=3, bias=True)
)
1	75 *** (0.4407687485218048, 0.4648153483867645, 0.44380223751068115, 1.0952599048614502, 0.06188785284757614)
2	2 *** (0.8147892951965332, 0.8253750205039978, 0.8171550035476685, 1.0953774452209473, 0.016027245670557022)
3	68 *** (1.149635910987854, 1.1509933471679688, 1.1303682327270508, 1.0978977680206299, 0.048932336270809174)
4	183 *** (1.887150526046753, 1.9730770587921143, 1.9390735626220703, 1.0975127220153809, 0.08845918625593185)
…
