/home/duju/cd2018-2,p3.5/bin/python3 /home/duju/animal_ai_olympics/duju_animal_ai_olympics/tdqn_exp/base_tdqn_conv.py
Conv_Discrete_TDQN_first
reward_compensate 1
input channel size :  3
fc input size :  1536
input channel size :  3
fc input size :  1536
Triple_DQN(
  (q1_conv1): Conv2d(3, 32, kernel_size=(5, 5), stride=(2, 2), padding=(2, 2))
  (q1_conv2): Conv2d(32, 32, kernel_size=(5, 5), stride=(2, 2), padding=(2, 2))
  (q1_conv3): Conv2d(32, 16, kernel_size=(3, 3), stride=(2, 2), padding=(1, 1))
  (q1_fc1): Linear(in_features=1536, out_features=256, bias=True)
  (q1_fc2): Linear(in_features=256, out_features=2, bias=True)
  (q2_conv1): Conv2d(3, 32, kernel_size=(5, 5), stride=(2, 2), padding=(2, 2))
  (q2_conv2): Conv2d(32, 32, kernel_size=(5, 5), stride=(2, 2), padding=(2, 2))
  (q2_conv3): Conv2d(32, 16, kernel_size=(3, 3), stride=(2, 2), padding=(1, 1))
  (q2_fc1): Linear(in_features=1536, out_features=256, bias=True)
  (q2_fc2): Linear(in_features=256, out_features=2, bias=True)
  (q3_conv1): Conv2d(3, 32, kernel_size=(5, 5), stride=(2, 2), padding=(2, 2))
  (q3_conv2): Conv2d(32, 32, kernel_size=(5, 5), stride=(2, 2), padding=(2, 2))
  (q3_conv3): Conv2d(32, 16, kernel_size=(3, 3), stride=(2, 2), padding=(1, 1))
  (q3_fc1): Linear(in_features=1536, out_features=256, bias=True)
  (q3_fc2): Linear(in_features=256, out_features=2, bias=True)
)
1	67 *** (0.25850436091423035, 0.26172688603401184, 0.2603200376033783, 0.6879636645317078, 0.06848488748073578)
2	136 *** (0.6753175854682922, 0.6883370280265808, 0.6514655351638794, 0.6850497126579285, 0.1006316989660263)
3	69 *** (1.010267734527588, 1.0124925374984741, 0.9879665970802307, 0.6836854219436646, 0.12010549008846283)
4	91 *** (1.3905738592147827, 1.3239797353744507, 1.38165283203125, 0.6865710020065308, 0.10509978234767914)
…
