Rainbow_DQN_Conv(
  (q1_conv1): Conv2d(12, 32, kernel_size=(4, 4), stride=(2, 2))
  (q1_conv2): Conv2d(32, 32, kernel_size=(5, 5), stride=(2, 2), padding=(2, 2))
  (q1_conv3): Conv2d(32, 32, kernel_size=(7, 7), stride=(7, 7))
  (q1_fc1): Linear(in_features=288, out_features=128, bias=True)
  (q1_fc2_V): Linear(in_features=128, out_features=128, bias=True)
  (q1_fc2_A): Linear(in_features=128, out_features=128, bias=True)
  (q1_V): Linear(in_features=128, out_features=1, bias=True)
  (q1_A): Linear(in_features=128, out_features=3, bias=True)
  (q2_conv1): Conv2d(12, 32, kernel_size=(4, 4), stride=(2, 2))
  (q2_conv2): Conv2d(32, 32, kernel_size=(5, 5), stride=(2, 2), padding=(2, 2))
  (q2_conv3): Conv2d(32, 32, kernel_size=(7, 7), stride=(7, 7))
  (q2_fc1): Linear(in_features=288, out_features=128, bias=True)
  (q2_fc2_V): Linear(in_features=128, out_features=128, bias=True)
  (q2_fc2_A): Linear(in_features=128, out_features=128, bias=True)
  (q2_V): Linear(in_features=128, out_features=1, bias=True)
  (q2_A): Linear(in_features=128, out_features=3, bias=True)
)
1 *** 1001 *** -10.009999310132116 *** (-0.0826549082994461, -0.08770754933357239, -0.06836064159870148, -0.08245866000652313, -0.009999999776482582)
2 *** 1001 *** -0.0199984572827816 *** (0.07410303503274918, -0.5677136182785034, 7.872695446014404, 0.0723184272646904, 0.3021875023841858)
3 *** 1001 *** -10.009999310132116 *** (0.11736726015806198, -0.40921103954315186, 2.8875012397766113, 0.11465609073638916, -0.009999999776482582)
…
