Rainbow_DQN_Conv(
  (q1_conv1): Conv2d(12, 32, kernel_size=(4, 4), stride=(2, 2))
  (q1_conv2): Conv2d(32, 32, kernel_size=(5, 5), stride=(2, 2), padding=(2, 2))
  (q1_conv3): Conv2d(32, 32, kernel_size=(7, 7), stride=(7, 7))
  (q1_fc1): Linear(in_features=288, out_features=128, bias=True)
  (q1_fc2_V): Linear(in_features=128, out_features=128, bias=True)
  (q1_fc2_A): Linear(in_features=128, out_features=128, bias=True)
  (q1_V): Linear(in_features=128, out_features=1, bias=True)
  (q1_A): Linear(in_features=128, out_features=3, bias=True)
  (q2_conv1): Conv2d(12, 32, kernel_size=(4, 4), stride=(2, 2))
  (q2_conv2): Conv2d(32, 32, kernel_size=(5, 5), stride=(2, 2), padding=(2, 2))
  (q2_conv3): Conv2d(32, 32, kernel_size=(7, 7), stride=(7, 7))
  (q2_fc1): Linear(in_features=288, out_features=128, bias=True)
  (q2_fc2_V): Linear(in_features=128, out_features=128, bias=True)
  (q2_fc2_A): Linear(in_features=128, out_features=128, bias=True)
  (q2_V): Linear(in_features=128, out_features=1, bias=True)
  (q2_A): Linear(in_features=128, out_features=3, bias=True)
)
1 *** 1001 *** -10.009999310132116 *** (-0.044937752187252045, -0.05141233652830124, -0.041777655482292175, -0.046015284955501556, -0.009999999776482582)
2 *** 1000 *** -9.999999310821295 *** (-0.05861155316233635, -0.06569985300302505, -0.05387313291430473, -0.05930330604314804, -0.009999999776482582)
3 *** 1000 *** -9.999999310821295 *** (-0.07073673605918884, -0.07963315397500992, -0.06433926522731781, -0.07087423652410507, -0.009999999776482582)
…
