Rainbow_DQN_Conv(
  (q1_conv1): Conv2d(12, 32, kernel_size=(4, 4), stride=(2, 2))
  (q1_conv2): Conv2d(32, 32, kernel_size=(5, 5), stride=(2, 2), padding=(2, 2))
  (q1_conv3): Conv2d(32, 32, kernel_size=(7, 7), stride=(7, 7))
  (q1_fc1): Linear(in_features=288, out_features=128, bias=True)
  (q1_fc2_V): Linear(in_features=128, out_features=128, bias=True)
  (q1_fc2_A): Linear(in_features=128, out_features=128, bias=True)
  (q1_V): Linear(in_features=128, out_features=1, bias=True)
  (q1_A): Linear(in_features=128, out_features=3, bias=True)
  (q2_conv1): Conv2d(12, 32, kernel_size=(4, 4), stride=(2, 2))
  (q2_conv2): Conv2d(32, 32, kernel_size=(5, 5), stride=(2, 2), padding=(2, 2))
  (q2_conv3): Conv2d(32, 32, kernel_size=(7, 7), stride=(7, 7))
  (q2_fc1): Linear(in_features=288, out_features=128, bias=True)
  (q2_fc2_V): Linear(in_features=128, out_features=128, bias=True)
  (q2_fc2_A): Linear(in_features=128, out_features=128, bias=True)
  (q2_V): Linear(in_features=128, out_features=1, bias=True)
  (q2_A): Linear(in_features=128, out_features=3, bias=True)
)
1 *** 1001 *** -10.009999310132116 *** (-0.08867689222097397, -0.10533623397350311, -0.06899537146091461, -0.09951170533895493, -0.009999999776482582)
2 *** 1001 *** -10.009999310132116 *** (-0.09759609401226044, -0.1179833710193634, -0.08255954831838608, -0.09792833030223846, -0.009999999776482582)
3 *** 1001 *** -10.009999310132116 *** (-0.11312516778707504, -0.1333063691854477, -0.09357482939958572, -0.11173272132873535, -0.009999999776482582)
…
