Rainbow_DQN_Conv(
  (q1_conv1): Conv2d(12, 32, kernel_size=(4, 4), stride=(2, 2))
  (q1_conv2): Conv2d(32, 32, kernel_size=(5, 5), stride=(2, 2), padding=(2, 2))
  (q1_conv3): Conv2d(32, 32, kernel_size=(7, 7), stride=(7, 7))
  (q1_fc1): Linear(in_features=288, out_features=128, bias=True)
  (q1_fc2_V): Linear(in_features=128, out_features=128, bias=True)
  (q1_fc2_A): Linear(in_features=128, out_features=128, bias=True)
  (q1_V): Linear(in_features=128, out_features=1, bias=True)
  (q1_A): Linear(in_features=128, out_features=3, bias=True)
  (q2_conv1): Conv2d(12, 32, kernel_size=(4, 4), stride=(2, 2))
  (q2_conv2): Conv2d(32, 32, kernel_size=(5, 5), stride=(2, 2), padding=(2, 2))
  (q2_conv3): Conv2d(32, 32, kernel_size=(7, 7), stride=(7, 7))
  (q2_fc1): Linear(in_features=288, out_features=128, bias=True)
  (q2_fc2_V): Linear(in_features=128, out_features=128, bias=True)
  (q2_fc2_A): Linear(in_features=128, out_features=128, bias=True)
  (q2_V): Linear(in_features=128, out_features=1, bias=True)
  (q2_A): Linear(in_features=128, out_features=3, bias=True)
)
1 *** 251 *** -10.03999930806458 *** (-0.14305776357650757, -0.1764698326587677, -0.12778398394584656, -0.14590798318386078, -0.03999999910593033)
2 *** 251 *** -10.03999930806458 *** (-0.19589802622795105, -0.22765500843524933, -0.18074198067188263, -0.19747480750083923, -0.03999999910593033)
3 *** 251 *** -10.03999930806458 *** (-0.225423201918602, -0.24709486961364746, -0.18861469626426697, -0.22411248087882996, -0.03999999910593033)
…
